model/full_bigram_language_model.pth (torch, 971916 bytes, 110 tensors)

weight f4 [65, 64]
0	0x3e8209b8	0.2539804
1	0x3db906a5	0.090344705
2	0xbecec9d5	-0.4038836
3	0xbf4dd4b3	-0.8040268
4	0x3eb5fb3f	0.35543248
5	0xbd5ebd3f	-0.054379698
6	0x3f481f3e	0.7817267
7	0x3e5efe7f	0.2177677
8	0x3f0df410	0.55450535
9	0x3f889d71	1.0673047
10	0xbfad1bff	-1.3524169
11	0xbe98fb10	-0.29879045
12	0x3e4e0259	0.20118083
13	0xbda62ffe	-0.081146225
14	0xbf42d7c4	-0.7611048
15	0x3fa30087	1.2734536
16	0x3fa54473	1.2911514
17	0xbe79b576	-0.24385628
18	0x3ee894e6	0.454261
19	0x3f90e1d6	1.131892
20	0xbffaeae2	-1.960293
21	0x3f01aee0	0.50657463
22	0x3fbd026b	1.4766363
23	0x3f19c4b2	0.6006576
24	0x3e2c453b	0.16823284
25	0xbfdbd6ed	-1.7174965
26	0xbf97d91e	-1.1863134
27	0xbf11041d	-0.566469
28	0x3eaf3850	0.3422265
29	0xbf668d25	-0.9005912
30	0x3fc5efde	1.5463827
31	0x4029a7b0	2.6508598
32	0xbeefec3e	-0.46859926
33	0xbe7ba25f	-0.24573658
34	0x3f90dc77	1.131728
35	0x3e6ef992	0.23337391
36	0xbd84264e	-0.064526185
37	0x3f7b5be4	0.9818709
38	0xbf7c6e33	-0.9860565
39	0xbe69a7c2	-0.22817901
40	0xbea4f396	-0.3221709
41	0xbf518240	-0.8183937
42	0x3e9a1bba	0.3009928
43	0xbfd584a9	-1.668111
44	0xbf9a884f	-1.2072848
45	0x3f37b201	0.7175599
46	0xbf3ce876	-0.7379221
47	0xbf213abc	-0.62980247
48	0x3fd4f78b	1.6638044
49	0xbf44b16c	-0.76833224
50	0x3fa6645c	1.2999377
51	0xbecb4629	-0.39701965
52	0xbfbec7c9	-1.490472
53	0x40101076	2.2510047
54	0x40225abf	2.5367887
55	0xbfc76232	-1.5576842
56	0x3fcb66b7	1.5890721
57	0xbfc5da40	-1.545723
58	0x3efff880	0.49994278
59	0xbe496b4e	-0.1966984
60	0x3f3fc76d	0.74913675
61	0x3fb5766f	1.4176768
62	0x3fd0d805	1.6315924
63	0xbf2e30d9	-0.68043286
64	0xbf491030	-0.78540325
65	0x3f1232ff	0.57109064
66	0xbd8f4c62	-0.06996991
67	0xbd6a8962	-0.057259925
68	0xbf048f49	-0.51781136
69	0x3ef5e798	0.48028255
70	0xbe2186d4	-0.15774089
71	0xbf765a38	-0.9623141
72	0x400862d8	2.131033
73	0xbf171dd4	-0.5902989
74	0x3e767d43	0.24071221
75	0x3f328c0b	0.6974494
76	0xbfba834f	-1.4571322
77	0x3f6231da	0.8835732
78	0x3e26ac09	0.16276564
79	0x3dee0601	0.11622239
80	0x401891c8	2.3838978
81	0xbf93aa9c	-1.1536441
82	0x3f800bd5	1.0003611
83	0x3f2b5649	0.66928536
84	0xbfd0d814	-1.6315942
85	0xbf9d601b	-1.2294954
86	0x3f51ac0e	0.8190316
87	0xbdf949e1	-0.121722944
88	0x3eb704a5	0.3574573
89	0xbed3a4a7	-0.41336557
90	0x3f0bc4e3	0.545973
91	0xbf3f6e89	-0.7477804
92	0xbebf69a4	-0.37385285
93	0xbee9be63	-0.45653066
94	0xbf82b10a	-1.0210278
95	0xbe760502	-0.24025348
96	0xbfc742c4	-1.556725
97	0xbfafb22d	-1.372625
98	0xbe6cc8f4	-0.23123533
99	0x3f6bd5e2	0.92123234
100	0x3dce1c32	0.100639716
101	0xbf13cb2c	-0.5773189
102	0xbe6f0f51	-0.23345686
103	0x3d14929a	0.036272623
104	0xbe409d1d	-0.18809934
105	0xbe4aedc6	-0.19817266
106	0x3e5cd8ea	0.21567121
107	0x3fa1c711	1.2638875
108	0x3e200eb5	0.1563061
109	0x401f0dd1	2.4852183
110	0xbf269a09	-0.6507879
111	0xc0028c5d	-2.039817
112	0xbeb85202	-0.36000067
113	0xbe0a63d9	-0.13514651
114	0x3f67f9fd	0.90615827
115	0xbff765af	-1.9327906
116	0x3e26d045	0.16290386
117	0x3eed7e52	0.46385437
118	0xbfd77aa5	-1.6834303
119	0x3f2c64bd	0.67341214
120	0x3fd9430e	1.6973588
121	0x3eaa2bc0	0.33236504
122	0x3e6da47c	0.23207277
123	0xbf0e266c	-0.5552738
124	0xbf50b90b	-0.81532353
125	0x3ed9fb92	0.42574745
126	0xbf13ce38	-0.5773654
127	0xbfc9f8c6	-1.5779045
128	0xbfbb3356	-1.4625041
129	0x40043567	2.0657594
130	0x3fbcddf3	1.4755234
131	0xbf41dc0c	-0.7572639
132	0x3fb9d45a	1.451793
133	0x3fa3273b	1.2746347
134	0xbed63e59	-0.41844442
135	0xbfa7a162	-1.3096125
136	0xbba716d7	-0.0050991583
137	0x3d3520ed	0.044220854
138	0x3f5571fc	0.8337705
139	0x3edbff6c	0.4296831
140	0x3eef5c2f	0.46750018
141	0xbf8602cb	-1.0469602
142	0x3ef8ee02	0.48619086
143	0x3f806b73	1.0032791
144	0x40112221	2.267708
145	0x3f2750f7	0.6535792
146	0xbfbd9e77	-1.4813985
147	0xbeb61c8b	-0.35568652
148	0x3e80bffd	0.25146475
149	0xbe6a074d	-0.22854348
150	0xbf524725	-0.8213981
151	0x3facb31e	1.3492162
152	0xbf13ffdd	-0.5781229
153	0x3d8284d6	0.06372993
154	0x3f644dbd	0.8918112
155	0xbeb8e607	-0.36112997
156	0xbf8fee26	-1.1244552
157	0xbf1649af	-0.5870618
158	0x3fbcab61	1.4739801
159	0xbeb64479	-0.35599115
160	0xbf443472	-0.76642525
161	0x3e7c0a97	0.24613415
162	0xbefd66f1	-0.494926
163	0x3ff71afc	1.930511
164	0xc01b91d4	-2.4307756
165	0x3e97b1b8	0.29627776
166	0xbf6a88dd	-0.91615087
167	0xbe26eaac	-0.16300458
168	0x3e7f25ac	0.24916714
169	0x3fb1ab85	1.3880469
170	0x3e7bc1cd	0.24585648
171	0xbe89b021	-0.26892188
172	0xbfb0d398	-1.3814573
173	0xbe94e991	-0.29084447
174	0xbff68fae	-1.9262598
175	0xbfb74545	-1.4318014
176	0xbe18003b	-0.14843838
177	0xbf8187fe	-1.0119627
178	0x3ee3c6d9	0.44487646
179	0x3e4e17a5	0.20126207
180	0x3f545c02	0.8295289
181	0x3f976a6e	1.1829355
182	0xbfe245bf	-1.7677535
183	0x3fba329f	1.4546698
184	0x3f9d2aeb	1.2278723
185	0x3f484871	0.78235537
186	0x3f287486	0.658028
187	0xbfb58d2f	-1.4183711
188	0xbf25465e	-0.64560497
189	0x3fd18a95	1.6370417
190	0x3f1a2419	0.6021133
191	0x3fa4ef48	1.2885523
192	0x3db4f628	0.08836013
193	0xbec46884	-0.3836099
194	0x3fd7b9ea	1.6853611
195	0x3fa99a78	1.3250265
196	0x3f889431	1.0670224
197	0xbf0817e5	-0.5316146
198	0xbeca0818	-0.394593
199	0x3ee6efb8	0.45104766
200	0xbd8cdf1c	-0.06878492
201	0xbfcfd3eb	-1.6236547
202	0x3f7fd5de	0.9993571
203	0x3f160084	0.58594537
204	0xbf9753de	-1.1822469
205	0xbf7113d1	-0.9417086
206	0xbd17c4c8	-0.0370529
207	0x3df42f31	0.119230635
208	0x3eb1af72	0.34704167
209	0xbf2a6b65	-0.6657012
210	0xbeb58618	-0.35453868
211	0xbeed3664	-0.4633056
212	0x3f0f7d55	0.56050617
213	0x3f155e9e	0.583475
214	0x3f8ec02d	1.1152397
215	0x3f375725	0.71617347
216	0x3edae72d	0.42754498
217	0x3f65c122	0.8974782
218	0xbe8caf32	-0.27477413
219	0xbf3be35b	-0.7339379
220	0xbeec56bf	-0.46159932
221	0x3ee3bae7	0.44478533
222	0xbf02fd83	-0.5116808
223	0xbeec6be0	-0.46176052
224	0xbf248ffe	-0.64282215
225	0xbe8a25e8	-0.26982045
226	0x3dc66fb0	0.096892715
227	0xbebebd3f	-0.37253758
228	0xbc30c025	-0.010787998
229	0x3f54356b	0.8289401
230	0xbc195f73	-0.009361136
231	0xbec23ea4	-0.37938416
232	0x3f44ccb2	0.7687484
233	0xbfae20c4	-1.3603749
234	0x3f118295	0.5683988
235	0xbfdb9439	-1.7154609
236	0xbf57704e	-0.8415574
237	0x3c79d35e	0.015248148
238	0xbed2de4e	-0.4118523
239	0xbeae8c62	-0.3409148
240	0x3fb5e759	1.4211227
241	0x3bf88ead	0.0075853677
242	0xbf4706b5	-0.7774461
243	0xbf8345b7	-1.025565
244	0x3ecc6663	0.39921865
245	0xbeadebb6	-0.33968896
246	0x3d9f998c	0.077929586
247	0xbf6d157e	-0.9261092
248	0xbeb55918	-0.35419536
249	0x3e7f1567	0.24910508
250	0xbf6108bf	-0.8790397
251	0xbf8c932c	-1.0982413
252	0x3f9059a9	1.1277362
253	0xbfe22a86	-1.7669227
254	0xbedb9134	-0.4288422
255	0x3f8396e2	1.0280421

weight f4 [32, 64]
0	0xbfa83faa	-1.3144429
1	0xbea725a8	-0.32645917
2	0xc011bf4b	-2.2773006
3	0xbfbdd66e	-1.4831064
4	0xbed36bf5	-0.41293302
5	0xbe04b90d	-0.12961216
6	0x3f480270	0.7812872
7	0x3e867600	0.26261902
8	0xbfa49ec0	-1.2860947
9	0xbe8503bd	-0.25979415
10	0x3eef9b25	0.46798053
11	0x3f5608f0	0.8360739
12	0x3edbfa4a	0.42964393
13	0xbfae7f90	-1.3632679
14	0xbf4599d5	-0.77187854
15	0x3fc1f0d9	1.5151626
16	0x3f334ceb	0.7003924
17	0xbf7dcd29	-0.99141175
18	0xbe0fbb2c	-0.14036244
19	0x3d51739b	0.05113564
20	0xc0210e15	-2.5164845
21	0x3f2f0d8a	0.68380034
22	0xbf5ce415	-0.86285526
23	0xbe47e098	-0.1951927
24	0x400591d4	2.0870256
25	0x3f1a4983	0.6026842
26	0xbffc24f0	-1.9698772
27	0xbe9a5cad	-0.3014883
28	0x400bb7db	2.1830966
29	0xbf5672a5	-0.83768684
30	0x3eb0b178	0.34510398
31	0xbf348751	-0.70518976
32	0xbf75002b	-0.9570338
33	0xbe8b0890	-0.2715497
34	0xbe341921	-0.17587711
35	0x3f653ca5	0.8954566
36	0x3f398e86	0.724831
37	0x3f81d670	1.0143566
38	0xbf98f7d6	-1.1950634
39	0xbf3b5272	-0.73172677
40	0x3ea4aa6b	0.3216127
41	0xbf967ca4	-1.1756787
42	0x3f56e399	0.83941036
43	0x3fae37b2	1.3610747
44	0xbf02f780	-0.51158905
45	0xbed201b8	-0.41016936
46	0xbefdab8e	-0.49544948
47	0xbfb92e00	-1.4467163
48	0xbeb1ac6c	-0.3470186
49	0xbdc13014	-0.09432998
50	0x3f3c3f1b	0.7353379
51	0xbf33e9d0	-0.70278645
52	0xbf2086cd	-0.6270569
53	0xbf4f7697	-0.8104033
54	0x3f4d1f63	0.8012602
55	0xbf2b494a	-0.66908705
56	0xbd0391a9	-0.032121334
57	0xbf0cec5a	-0.55048144
58	0x3ff17098	1.8862486
59	0xbeebb195	-0.46033922
60	0xbf4322f9	-0.7622524
61	0x3f133ffb	0.575195
62	0x3fea98dc	1.8327899
63	0x3f95b018	1.1694365
64	0xbe1e05a5	-0.1543184
65	0x3fb00386	1.3751075
66	0x3e92e187	0.2868769
67	0x3f5034a6	0.81330335
68	0xbf0772e3	-0.5290968
69	0x3fca2dfa	1.5795281
70	0xbe47b23b	-0.19501583
71	0x3c25bbe0	0.010115594
72	0xbf0a95cc	-0.5413482
73	0xbf4ba2e6	-0.7954544
74	0x3ea07aa1	0.31343558
75	0xbe823490	-0.25430727
76	0xbf58311b	-0.8444993
77	0xbf6abd2c	-0.91694903
78	0xbf1df14a	-0.616963
79	0x3f8f0952	1.1174719
80	0xbd2c4b15	-0.04206379
81	0x3f2abfed	0.66699106
82	0xbd27704b	-0.040878575
83	0x3f0c193b	0.54726
84	0x3f06d731	0.52672106
85	0x3f1a3bad	0.6024731
86	0xbf847513	-1.0348228
87	0xbf413cb8	-0.75483274
88	0xbec7e70c	-0.39043462
89	0xbf40459f	-0.75106233
90	0xbe0cc6f7	-0.13747774
91	0xbc22dd56	-0.009940466
92	0x4018ec44	2.3894205
93	0x3f726245	0.946812
94	0xbea74eeb	-0.32677397
95	0x3f5ef8e4	0.87098527
96	0xbeb50e0a	-0.35362273
97	0xbd685c89	-0.056728873
98	0xbcfebda0	-0.03109628
99	0xbf033d5b	-0.51265496
100	0x3f66c0f9	0.901382
101	0x3e87a21b	0.26490864
102	0x3f5b18a2	0.8558446
103	0xbef5e3bd	-0.48025313
104	0xbf8a645c	-1.0811877
105	0xbea8f033	-0.32995757
106	0x3ef6fac8	0.48238206
107	0x3f52ce43	0.8234598
108	0x3f01fc47	0.5077557
109	0xbed1c7a5	-0.4097263
110	0x3f4cef97	0.80053085
111	0xbfb01566	-1.375653
112	0xbf9c1083	-1.2192539
113	0xbe6b7c09	-0.22996534
114	0x3ed3fd80	0.41404343
115	0xbd77036e	-0.060306005
116	0xbd2e596c	-0.042565748
117	0xbecfd660	-0.40593243
118	0x3efea458	0.4973476
119	0x3f203d7f	0.62593836
120	0xbec82249	-0.39088657
121	0xbf34030b	-0.70317143
122	0x3d2351bb	0.039872866
123	0xbfb6ca9a	-1.4280579
124	0xbf4eabc6	-0.80730855
125	0x3dc196a9	0.09452564
126	0xbf87e1fb	-1.0615839
127	0x3fc3b2f2	1.5288985
128	0x3efcbcc3	0.49362764
129	0xbf5ec326	-0.8701652
130	0xbf29f282	-0.6638566
131	0xbf78bac4	-0.9715998
132	0xbea94641	-0.33061412
133	0x3fce1c2f	1.6102351
134	0x3f102558	0.5630698
135	0xbdf0f3b1	-0.117652304
136	0x3fc5c951	1.5452062
137	0x4001821c	2.0235662
138	0x3f62013d	0.8828314
139	0x3fa46110	1.2842121
140	0x3f2e4944	0.68080544
141	0x3f26f709	0.65220696
142	0xbfacab6d	-1.3489815
143	0x3f47fe13	0.7812206
144	0xbeebe347	-0.46071836
145	0x3ed0d463	0.40787038
146	0xbe938f53	-0.28820285
147	0x3e91d015	0.28479066
148	0xbf218b9e	-0.63103664
149	0xbf18c84a	-0.59680617
150	0xbf416c78	-0.75556135
151	0x3f02a995	0.5104001
152	0xbe09617b	-0.13416092
153	0x3fa31ca5	1.2743117
154	0xbf1c76e5	-0.6111892
155	0xbeb9bbda	-0.36276132
156	0x3f6e5ade	0.931074
157	0x3f52d002	0.82348645
158	0x3f86a29f	1.0518378
159	0x3f495583	0.78646106
160	0x3fa3094e	1.2737215
161	0x3e8bf55b	0.2733563
162	0xbf84950f	-1.0357989
163	0x3f41b344	0.7566416
164	0x3f833173	1.0249466
165	0x3f94c559	1.1622726
166	0x3eefe6b2	0.46855694
167	0xbfa715b5	-1.30535
168	0x3fa85c17	1.3153104
169	0x3f37d29c	0.7180574
170	0xbc619c38	-0.013770156
171	0x3f964de9	1.1742526
172	0xbe941f5d	-0.28930178
173	0xbf0cf891	-0.5506678
174	0xbe2dd26e	-0.16974804
175	0x3f6a6e76	0.915748
176	0xbee27cb1	-0.44235757
177	0xbf697563	-0.9119474
178	0x3f4941b1	0.7861586
179	0x3f9c82f0	1.2227459
180	0x3fc1194c	1.5085845
181	0x3f0a793d	0.54091245
182	0x3e153743	0.14571862
183	0x3e8de2f8	0.27712226
184	0x3f997fbc	1.1992106
185	0x3c5d876e	0.0135210585
186	0xbf260cd7	-0.6486334
187	0x3f4ffd72	0.812461
188	0xbe0e238a	-0.13880745
189	0x3ffaa6b0	1.9582119
190	0x3db0e7dd	0.086379744
191	0x3fa5abf4	1.2943101
192	0xbecfc5f3	-0.4058071
193	0xbe79362d	-0.24337073
194	0xbf374d7c	-0.71602607
195	0xbfd59310	-1.6685505
196	0x3f280124	0.6562674
197	0xbf3115d6	-0.69173944
198	0x3f889b55	1.0672404
199	0x3fc4d76e	1.5378244
200	0x3f00ae5a	0.5026604
201	0x3f9c2cb9	1.2201148
202	0x3f3e21e4	0.74270463
203	0x3f783d71	0.9696875
204	0x3fced341	1.615822
205	0x3ed983f2	0.4248348
206	0x3f16bf43	0.5888559
207	0xbe9d0d13	-0.30674037
208	0xbf4d00af	-0.8007917
209	0xbd35d387	-0.04439118
210	0x3f100c1a	0.56268466
211	0x3ed8f751	0.42376187
212	0x3eac90b3	0.33704147
213	0x3f92084e	1.1408784
214	0x3fa22421	1.2667276
215	0xbf26f552	-0.6521808
216	0xbf7e69dc	-0.9938028
217	0x3e7910c5	0.24322803
218	0x3ec2b460	0.3802824
219	0x4012e21e	2.295051
220	0x3fdb4f87	1.7133645
221	0xbf475ff3	-0.7788078
222	0xbf8d9440	-1.1060867
223	0x3f0a5d09	0.5404821
224	0xbe6db9ba	-0.2321538
225	0x3e6e457b	0.23268692
226	0xbd8fa231	-0.070133574
227	0xbe3ac6ed	-0.18239947
228	0x3e1677c3	0.14694123
229	0xbdd4ec6f	-0.10396659
230	0x3dafe566	0.08588676
231	0x3fb09a16	1.3797023
232	0x3f086d9e	0.5329226
233	0xbeff7b0f	-0.49898574
234	0xbfd888fc	-1.6916804
235	0xbf8b23d1	-1.0870305
236	0x3f87ed18	1.061923
237	0xbfe805be	-1.8126752
238	0x3fd22903	1.6418766
239	0xbf08fa54	-0.5350697
240	0x3f855065	1.041516
241	0x3e9856da	0.29753762
242	0x3fa43e57	1.2831525
243	0x3f41f5aa	0.7576548
244	0x3e9b0549	0.3027747
245	0xbe6b5007	-0.22979747
246	0x3f68b65e	0.9090327
247	0xbd8a8bd1	-0.06764949
248	0x3f42485c	0.7589166
249	0x3fa20a17	1.2659329
250	0xbd955ead	-0.072934486
251	0xbfd2f4d1	-1.6480962
252	0xbe05551c	-0.13020748
253	0xbe089d4a	-0.13341251
254	0x3f18c612	0.5967723
255	0x3f73d96a	0.9525362

tril f4 [32, 32]
0	0x3f800000	1.0
1	0x00000000	0.0
2	0x00000000	0.0
3	0x00000000	0.0
4	0x00000000	0.0
5	0x00000000	0.0
6	0x00000000	0.0
7	0x00000000	0.0
8	0x00000000	0.0
9	0x00000000	0.0
10	0x00000000	0.0
11	0x00000000	0.0
12	0x00000000	0.0
13	0x00000000	0.0
14	0x00000000	0.0
15	0x00000000	0.0
16	0x00000000	0.0
17	0x00000000	0.0
18	0x00000000	0.0
19	0x00000000	0.0
20	0x00000000	0.0
21	0x00000000	0.0
22	0x00000000	0.0
23	0x00000000	0.0
24	0x00000000	0.0
25	0x00000000	0.0
26	0x00000000	0.0
27	0x00000000	0.0
28	0x00000000	0.0
29	0x00000000	0.0
30	0x00000000	0.0
31	0x00000000	0.0
32	0x3f800000	1.0
33	0x3f800000	1.0
34	0x00000000	0.0
35	0x00000000	0.0
36	0x00000000	0.0
37	0x00000000	0.0
38	0x00000000	0.0
39	0x00000000	0.0
40	0x00000000	0.0
41	0x00000000	0.0
42	0x00000000	0.0
43	0x00000000	0.0
44	0x00000000	0.0
45	0x00000000	0.0
46	0x00000000	0.0
47	0x00000000	0.0
48	0x00000000	0.0
49	0x00000000	0.0
50	0x00000000	0.0
51	0x00000000	0.0
52	0x00000000	0.0
53	0x00000000	0.0
54	0x00000000	0.0
55	0x00000000	0.0
56	0x00000000	0.0
57	0x00000000	0.0
58	0x00000000	0.0
59	0x00000000	0.0
60	0x00000000	0.0
61	0x00000000	0.0
62	0x00000000	0.0
63	0x00000000	0.0
64	0x3f800000	1.0
65	0x3f800000	1.0
66	0x3f800000	1.0
67	0x00000000	0.0
68	0x00000000	0.0
69	0x00000000	0.0
70	0x00000000	0.0
71	0x00000000	0.0
72	0x00000000	0.0
73	0x00000000	0.0
74	0x00000000	0.0
75	0x00000000	0.0
76	0x00000000	0.0
77	0x00000000	0.0
78	0x00000000	0.0
79	0x00000000	0.0
80	0x00000000	0.0
81	0x00000000	0.0
82	0x00000000	0.0
83	0x00000000	0.0
84	0x00000000	0.0
85	0x00000000	0.0
86	0x00000000	0.0
87	0x00000000	0.0
88	0x00000000	0.0
89	0x00000000	0.0
90	0x00000000	0.0
91	0x00000000	0.0
92	0x00000000	0.0
93	0x00000000	0.0
94	0x00000000	0.0
95	0x00000000	0.0
96	0x3f800000	1.0
97	0x3f800000	1.0
98	0x3f800000	1.0
99	0x3f800000	1.0
100	0x00000000	0.0
101	0x00000000	0.0
102	0x00000000	0.0
103	0x00000000	0.0
104	0x00000000	0.0
105	0x00000000	0.0
106	0x00000000	0.0
107	0x00000000	0.0
108	0x00000000	0.0
109	0x00000000	0.0
110	0x00000000	0.0
111	0x00000000	0.0
112	0x00000000	0.0
113	0x00000000	0.0
114	0x00000000	0.0
115	0x00000000	0.0
116	0x00000000	0.0
117	0x00000000	0.0
118	0x00000000	0.0
119	0x00000000	0.0
120	0x00000000	0.0
121	0x00000000	0.0
122	0x00000000	0.0
123	0x00000000	0.0
124	0x00000000	0.0
125	0x00000000	0.0
126	0x00000000	0.0
127	0x00000000	0.0
128	0x3f800000	1.0
129	0x3f800000	1.0
130	0x3f800000	1.0
131	0x3f800000	1.0
132	0x3f800000	1.0
133	0x00000000	0.0
134	0x00000000	0.0
135	0x00000000	0.0
136	0x00000000	0.0
137	0x00000000	0.0
138	0x00000000	0.0
139	0x00000000	0.0
140	0x00000000	0.0
141	0x00000000	0.0
142	0x00000000	0.0
143	0x00000000	0.0
144	0x00000000	0.0
145	0x00000000	0.0
146	0x00000000	0.0
147	0x00000000	0.0
148	0x00000000	0.0
149	0x00000000	0.0
150	0x00000000	0.0
151	0x00000000	0.0
152	0x00000000	0.0
153	0x00000000	0.0
154	0x00000000	0.0
155	0x00000000	0.0
156	0x00000000	0.0
157	0x00000000	0.0
158	0x00000000	0.0
159	0x00000000	0.0
160	0x3f800000	1.0
161	0x3f800000	1.0
162	0x3f800000	1.0
163	0x3f800000	1.0
164	0x3f800000	1.0
165	0x3f800000	1.0
166	0x00000000	0.0
167	0x00000000	0.0
168	0x00000000	0.0
169	0x00000000	0.0
170	0x00000000	0.0
171	0x00000000	0.0
172	0x00000000	0.0
173	0x00000000	0.0
174	0x00000000	0.0
175	0x00000000	0.0
176	0x00000000	0.0
177	0x00000000	0.0
178	0x00000000	0.0
179	0x00000000	0.0
180	0x00000000	0.0
181	0x00000000	0.0
182	0x00000000	0.0
183	0x00000000	0.0
184	0x00000000	0.0
185	0x00000000	0.0
186	0x00000000	0.0
187	0x00000000	0.0
188	0x00000000	0.0
189	0x00000000	0.0
190	0x00000000	0.0
191	0x00000000	0.0
192	0x3f800000	1.0
193	0x3f800000	1.0
194	0x3f800000	1.0
195	0x3f800000	1.0
196	0x3f800000	1.0
197	0x3f800000	1.0
198	0x3f800000	1.0
199	0x00000000	0.0
200	0x00000000	0.0
201	0x00000000	0.0
202	0x00000000	0.0
203	0x00000000	0.0
204	0x00000000	0.0
205	0x00000000	0.0
206	0x00000000	0.0
207	0x00000000	0.0
208	0x00000000	0.0
209	0x00000000	0.0
210	0x00000000	0.0
211	0x00000000	0.0
212	0x00000000	0.0
213	0x00000000	0.0
214	0x00000000	0.0
215	0x00000000	0.0
216	0x00000000	0.0
217	0x00000000	0.0
218	0x00000000	0.0
219	0x00000000	0.0
220	0x00000000	0.0
221	0x00000000	0.0
222	0x00000000	0.0
223	0x00000000	0.0
224	0x3f800000	1.0
225	0x3f800000	1.0
226	0x3f800000	1.0
227	0x3f800000	1.0
228	0x3f800000	1.0
229	0x3f800000	1.0
230	0x3f800000	1.0
231	0x3f800000	1.0
232	0x00000000	0.0
233	0x00000000	0.0
234	0x00000000	0.0
235	0x00000000	0.0
236	0x00000000	0.0
237	0x00000000	0.0
238	0x00000000	0.0
239	0x00000000	0.0
240	0x00000000	0.0
241	0x00000000	0.0
242	0x00000000	0.0
243	0x00000000	0.0
244	0x00000000	0.0
245	0x00000000	0.0
246	0x00000000	0.0
247	0x00000000	0.0
248	0x00000000	0.0
249	0x00000000	0.0
250	0x00000000	0.0
251	0x00000000	0.0
252	0x00000000	0.0
253	0x00000000	0.0
254	0x00000000	0.0
255	0x00000000	0.0

weight f4 [16, 64]
0	0x3c6ff059	0.014644706
1	0x3de4a5ab	0.11164411
2	0x3e4d52cf	0.2005112
3	0x3d50b0c5	0.05094983
4	0xbe2d7182	-0.16937831
5	0x3cca61a2	0.024704758
6	0xbda89b65	-0.08232764
7	0x3cd37929	0.02581461
8	0x3b8bcd1a	0.0042663934
9	0x3d8254df	0.06363844
10	0x3d202a7b	0.039103013
11	0xbd9b7bd9	-0.075919814
12	0x3e0842aa	0.1330668
13	0xbc0b1ddf	-0.008491009
14	0xbdf409ad	-0.11915908
15	0x3db57541	0.08860255
16	0x3d3d9de1	0.046293143
17	0x3c206d42	0.009791674
18	0x3de234a6	0.11045198
19	0xbd5078fe	-0.050896637
20	0x3e11ad00	0.1422615
21	0x3ccf6e1a	0.025321055
22	0x3d83f0f5	0.06442443
23	0x3dfffd40	0.124994755
24	0x3ccdc7cf	0.02511969
25	0x3d0b8c51	0.034069363
26	0xbddb51e3	-0.10708978
27	0x3da34929	0.079729386
28	0xbcf63da0	-0.030058682
29	0x3d78d15d	0.06074654
30	0x3d354292	0.04425294
31	0x3da96492	0.082711354
32	0xbc93b872	-0.018032286
33	0x3d3ecb2c	0.04658048
34	0x3e31996c	0.17343682
35	0xbd7e85a7	-0.06213918
36	0x3d242ad1	0.040079895
37	0x3dc0dadd	0.09416745
38	0xbe30172e	-0.17196342
39	0xbcce7e0e	-0.025206592
40	0xbbb0f2af	-0.005400024
41	0x3d4e69fc	0.050394043
42	0x3d8219db	0.06352588
43	0x3d2a922a	0.0416433
44	0xbe31be9b	-0.17357866
45	0x3d805d32	0.062677756
46	0xbda3cadd	-0.079976775
47	0xbcece299	-0.028916644
48	0x3da85146	0.08218627
49	0x3cfce5a0	0.030871212
50	0x3cd78e35	0.026312927
51	0x3df32aa9	0.11873371
52	0x3d6e6893	0.0582052
53	0x3e09180b	0.13388078
54	0x3d32090f	0.04346567
55	0x3d84dff8	0.06488031
56	0xbdbd220f	-0.09235012
57	0x3d941052	0.07229675
58	0xbda588c3	-0.08082726
59	0xbcbbb4e6	-0.022913408
60	0xbdef6e4e	-0.11690961
61	0x3c0b3ebb	0.008498843
62	0xbc8968a8	-0.016773537
63	0x3d57e9c7	0.05271318
64	0xbd6d9391	-0.05800206
65	0x3d7a27b6	0.061073028
66	0x3da16d7e	0.07882212
67	0x3de49496	0.11161153
68	0x3dc2e9a9	0.095172234
69	0xbd3927a4	-0.04520382
70	0xbc8aa6c8	-0.01692523
71	0x3c4a0e5f	0.012332528
72	0x3cee31cc	0.02907648
73	0x3e7946a8	0.2434336
74	0x3db1b1d4	0.08676496
75	0x3ddf69ca	0.109088495
76	0x3e391906	0.18075952
77	0x3cf78d38	0.030218706
78	0xbce6614f	-0.028122572
79	0xbde3ad91	-0.111170895
80	0xbe01a19a	-0.12659302
81	0x3c0971e2	0.008388968
82	0x3e2fd5cd	0.17171402
83	0x3e1555f3	0.14583568
84	0x3d9a5989	0.07536609
85	0x3d2e6fe0	0.04258716
86	0xbd1b1c5f	-0.037868854
87	0xbd69c2fe	-0.057070725
88	0x3d29e846	0.04148128
89	0xbcbaf8d6	-0.022823732
90	0xbd14f040	-0.036361933
91	0xbd97a22a	-0.07403977
92	0xbd7d80cb	-0.061890405
93	0xbce74155	-0.028229395
94	0xbc92710d	-0.017876172
95	0xbdaab6a1	-0.08335615
96	0x3d89f1fb	0.06735607
97	0xbdfb2403	-0.12262728
98	0xbd1b0d1b	-0.037854295
99	0x3baa2a1d	0.0051930086
100	0x3c9e5bec	0.019330941
101	0x3c831bea	0.016004521
102	0x3dcbc57c	0.099497765
103	0x3dbc0587	0.09180742
104	0x3dbba61d	0.09162543
105	0x3dc63aca	0.09679182
106	0xbe0fdda6	-0.14049396
107	0xbdf55b0e	-0.11980258
108	0xbe01459b	-0.12624209
109	0xbe0e4c3f	-0.13896273
110	0xbe025360	-0.12727118
111	0x3b70521d	0.0036670037
112	0x3dcb7f66	0.09936409
113	0x3d512f47	0.051070478
114	0xbe008f13	-0.12554578
115	0xbdcb59d3	-0.09929242
116	0xbde66ff7	-0.11251824
117	0xbe070111	-0.13184
118	0x3db0978a	0.08622654
119	0x3d9384e3	0.072030805
120	0x3d529fcd	0.05142193
121	0x3c36448b	0.01112474
122	0x3c7828c5	0.015146439
123	0x3d52cf3b	0.05146716
124	0x3d47dbb6	0.048793517
125	0x3dc510ab	0.0962232
126	0xbd3fb48e	-0.04680305
127	0xbd8bb525	-0.0682166
128	0x3cced180	0.025246382
129	0xbdc69484	-0.09696296
130	0x3d6b0ce2	0.057385333
131	0x3d845ac9	0.064626284
132	0xbd35fc88	-0.044430286
133	0x3d747bf6	0.05968853
134	0x3e0172b0	0.12641406
135	0xbd53eee5	-0.0517415
136	0xbe0593c9	-0.13044657
137	0x3cd3880f	0.025821714
138	0xbbae319b	-0.005315972
139	0xbd6672ab	-0.0562617
140	0x3e116ca4	0.142016
141	0x3e3b0830	0.18264842
142	0x3dffb316	0.1248533
143	0x3d6c16b7	0.05763885
144	0xbda3cdec	-0.07998261
145	0x3d983303	0.07431605
146	0xbde08940	-0.10963678
147	0x3e3af96a	0.18259206
148	0xbdaa9464	-0.083290845
149	0x3b58b25c	0.0033065295
150	0x3d0f3c1d	0.034969438
151	0xbda74630	-0.08167684
152	0xbd4a01d5	-0.049318153
153	0x3d7f7904	0.06237127
154	0xbd49e643	-0.04929186
155	0x3db2c0a4	0.087281495
156	0x3d957f8c	0.07299718
157	0xbe0fe899	-0.14053573
158	0x3c23ef8f	0.010005846
159	0x3dbbe495	0.09174458
160	0x3d53b57b	0.051686745
161	0xbdb9ef48	-0.090788424
162	0xbc898acc	-0.016789816
163	0xbc24a04e	-0.010047985
164	0x3daf9553	0.08573403
165	0xbde9e5a0	-0.114207506
166	0xbc256067	-0.010093785
167	0xbd67c65c	-0.056585655
168	0x3cfc2113	0.03077749
169	0x3e03bc0f	0.12864707
170	0x3dbf1fbe	0.09332226
171	0xbc1beece	-0.009517385
172	0x3c23052e	0.009949965
173	0x3df06c8a	0.11739452
174	0xbd8185ce	-0.06324349
175	0xbd1e27ef	-0.038612302
176	0x3d21aff1	0.03947443
177	0x3d8b1fc9	0.06793172
178	0xbd5784e5	-0.052616972
179	0xbc98ec28	-0.018667296
180	0x3d439496	0.047749124
181	0x3e2119f2	0.15732554
182	0xbb3a5861	-0.0028434026
183	0xbe00856e	-0.125509
184	0xbc792d03	-0.015208486
185	0xbe928525	-0.28617206
186	0x3b578920	0.003288813
187	0xbdc365d5	-0.09540907
188	0x3d0cb21e	0.034349553
189	0x3d326d27	0.043561127
190	0x3d86964d	0.06571636
191	0xbde9ad6a	-0.11410029
192	0x3e095ea8	0.13415015
193	0x3e1c4aa6	0.15262851
194	0x3e99adaa	0.30015308
195	0xbdb75f76	-0.089537546
196	0xbda5fc0b	-0.08104714
197	0x3d9f767b	0.0778627
198	0xbde1cedd	-0.11025784
199	0x3da75b8c	0.08171758
200	0x3e475d79	0.1946925
201	0x3d8c28c3	0.06843712
202	0xbda0c657	-0.0785033
203	0x3dabd8c7	0.08390956
204	0x3d0e124a	0.03468541
205	0x3d28986a	0.04116098
206	0xbd9dd85c	-0.07707283
207	0x3b4e1872	0.0031447676
208	0x3b9530ba	0.004552928
209	0x3ddfa758	0.1092059
210	0x3d452355	0.0481294
211	0xbd220a7a	-0.039560772
212	0xbd99b145	-0.075045146
213	0xbcaeed80	-0.021353483
214	0xbd504685	-0.050848503
215	0x3d4e6528	0.05038944
216	0x3e2a7791	0.16647173
217	0x3d1e06d4	0.03858073
218	0xbc5706fc	-0.013124224
219	0xbcb42ccf	-0.021994023
220	0x3d2dc3f6	0.04242321
221	0xbd8de6e2	-0.06928803
222	0xbcd20bfd	-0.025640482
223	0x3b93340d	0.004492289
224	0xbd599c07	-0.053127315
225	0xbd77ca36	-0.060495578
226	0xbde316d5	-0.11088339
227	0xbc4259d8	-0.011862241
228	0xbd8c0606	-0.068370864
229	0xbd6a2918	-0.057168096
230	0x3d0ab30f	0.03386217
231	0x3d334493	0.04376657
232	0x3aceb98e	0.0015771852
233	0x3d3ac77c	0.0456004
234	0x3d1fecb0	0.039044082
235	0x3d305d91	0.043057982
236	0xbdc5a9c4	-0.09651521
237	0x3b77bfcb	0.0037803527
238	0x3dbf5407	0.09342199
239	0xbcea3005	-0.02858735
240	0xbd14bbc5	-0.036311883
241	0x3cc32563	0.023821538
242	0xbdc08e4c	-0.09402141
243	0x3dd51d6a	0.10406001
244	0xbd937611	-0.07200254
245	0xbbc9106f	-0.0061359922
246	0x3dbb885f	0.0915687
247	0xbcb05b76	-0.021527987
248	0xbd42ad86	-0.047528766
249	0x3d79cb3c	0.060984835
250	0xbdf068ec	-0.11738762
251	0x3e3f6e25	0.1869436
252	0xbdb7d1e6	-0.08975582
253	0x3d1403c1	0.036136393
254	0xbd291e04	-0.04128839
255	0x3d8f927b	0.07010361

weight f4 [16, 64]
0	0xbdc26ce3	-0.09493425
1	0xbcc90ca4	-0.02454216
2	0x3d5ee4a5	0.05441727
3	0x3d9a4c84	0.075341254
4	0x3d0ed3ec	0.034870073
5	0xbda76d8f	-0.081751935
6	0x3c7976bc	0.015226062
7	0xbde4c9c9	-0.111713
8	0xbdcf5d18	-0.10125178
9	0xbe62fdf6	-0.22167191
10	0xbe1cd04b	-0.15313832
11	0x3d56ef50	0.05247432
12	0x3dbe6dca	0.09298284
13	0xbd047d47	-0.032346036
14	0xbd1fcb2c	-0.03901212
15	0xbd3e4934	-0.04645653
16	0xbdb4ebb1	-0.08834017
17	0xbd71d06f	-0.05903667
18	0x3d6a6d29	0.05723301
19	0x3d977d49	0.07396943
20	0xbc2a2616	-0.010385057
21	0xbce280ba	-0.027649272
22	0x3c1ce267	0.009575463
23	0xbcde2f49	-0.027122157
24	0xbde4efbd	-0.11178539
25	0x3db14acc	0.086568445
26	0x3dd2cd87	0.102931075
27	0x3d883c97	0.066521816
28	0xbd471c8b	-0.048611205
29	0x3d2ac3dd	0.041690696
30	0x3b82f958	0.0039970092
31	0x3c50878f	0.012727632
32	0x3ddfd577	0.10929387
33	0x3cbdb496	0.0231574
34	0xbcf9bbc0	-0.030485034
35	0x3d7d1a35	0.06179257
36	0xba376fb7	-0.0006997543
37	0xbdbabc26	-0.09117918
38	0x3da63c66	0.08116989
39	0x3d522656	0.05130609
40	0x3c418a55	0.011812766
41	0xbd2abf34	-0.04168625
42	0x3d348007	0.04406741
43	0x3d90dbcd	0.07073174
44	0x3d06fee9	0.032957945
45	0xbe1ded6e	-0.15422603
46	0xbb3e73aa	-0.002906064
47	0x3d113e57	0.035459843
48	0xbd046bc5	-0.03232934
49	0x3d16ff28	0.03686443
50	0x3dd27468	0.10276109
51	0xbdc8e698	-0.09809607
52	0xbe20c020	-0.1569829
53	0x3e490dab	0.1963412
54	0x3dae0eaa	0.08498891
55	0x3da30c0b	0.079612814
56	0x3d4e96ba	0.050436713
57	0xba8e1deb	-0.0010842656
58	0x3e0921ad	0.13391753
59	0x3daa69d5	0.08320967
60	0xbc218d5a	-0.009860361
61	0xbd9e2c9d	-0.07723353
62	0xbce204a2	-0.0275901
63	0x3df4d6ca	0.1195503
64	0xbc2e61ae	-0.010643406
65	0x3db1a24b	0.08673533
66	0x3d9e70d9	0.07736368
67	0x3e1f9d29	0.15587296
68	0x3dc4e8c8	0.09614712
69	0x3d86688a	0.06562908
70	0xbd802918	-0.06257838
71	0x3dd9e80c	0.106399626
72	0xbcd32406	-0.025774013
73	0xbc9f0693	-0.019412315
74	0xbddb4abb	-0.10707613
75	0xbdf4c038	-0.11950725
76	0xbd849462	-0.06473614
77	0x3bf1f792	0.007384249
78	0x3d2f27a5	0.042762417
79	0x3e1a902d	0.15094061
80	0xbd760e35	-0.060072143
81	0x3c198152	0.009369211
82	0x3da78412	0.08179487
83	0x3e1c3cba	0.1525754
84	0x3b44bf18	0.0030021127
85	0x3d8a7ed3	0.06762471
86	0x3d0ad4ec	0.033894464
87	0xbe0ca461	-0.1373458
88	0x3b8d0cf0	0.004304521
89	0x3db6146b	0.08890613
90	0xbcf8080d	-0.030277276
91	0xbc8c3193	-0.017113483
92	0xbd3a72a0	-0.04551947
93	0xbdbfff35	-0.09374849
94	0xbcc47c3a	-0.023985017
95	0x3cfb52d9	0.030679153
96	0x3da1b695	0.07896153
97	0xbce80668	-0.028323367
98	0x3d11c80e	0.035591178
99	0x3dddf86e	0.108384
100	0xbd35c64a	-0.044378556
101	0xbb7e1f03	-0.0038775809
102	0xbdddace1	-0.1082399
103	0x3db1a2e0	0.08673644
104	0x3db75b94	0.08953014
105	0xbdaf6a09	-0.085651465
106	0x3bfdff44	0.0077513773
107	0xbd5b6acf	-0.053568657
108	0xbe418574	-0.18898565
109	0x3d5175cd	0.051137734
110	0xbda50451	-0.08057464
111	0xbbbf1521	-0.005831376
112	0xbc87968b	-0.016551277
113	0xbac289ae	-0.0014842057
114	0x3e79f2cd	0.24409027
115	0xbe5e3eec	-0.2170369
116	0xbe3c3f48	-0.18383515
117	0x3e1c828b	0.15284173
118	0xbdb6b064	-0.089203626
119	0x3d54d71f	0.051962968
120	0x3d59acce	0.053143315
121	0xbda0ad9a	-0.07845612
122	0xbd71f1d3	-0.059068512
123	0x3b3f3603	0.002917648
124	0xbd77436d	-0.060367037
125	0x3d5a7f48	0.05334404
126	0x3e0ac593	0.13551931
127	0xbdd2c3d1	-0.10291255
128	0x3d8d0ea4	0.06887558
129	0x3e03dbe4	0.1287685
130	0x3d6b5275	0.057451684
131	0xbcc142d3	-0.023591435
132	0xbdaa34f0	-0.08310878
133	0xbd2d3727	-0.042288925
134	0xbcb35ad5	-0.021893898
135	0x3dbbbe30	0.09167135
136	0x3d884673	0.06654062
137	0xbcd4b1dc	-0.025963716
138	0xbe153a6a	-0.14573064
139	0xbc42d933	-0.011892605
140	0x3e018a85	0.12650497
141	0xbcf38195	-0.029724875
142	0x3d7b6611	0.061376635
143	0xbd94de41	-0.07268954
144	0xbdc334f8	-0.09531587
145	0xbe68c6fa	-0.22732154
146	0x3da060cc	0.078309625
147	0xbdb7a198	-0.089663684
148	0x3d94c538	0.07264179
149	0xbdba68b3	-0.09102001
150	0x3b14874f	0.0022663658
151	0xba641a01	-0.00087013846
152	0xbc9ddf45	-0.019271502
153	0xbd2f1e1c	-0.042753324
154	0xbcdb4437	-0.026765926
155	0xbd30713c	-0.04307674
156	0xbd63c640	-0.055608988
157	0xba6ca1e1	-0.00090268074
158	0x3d8408e5	0.06447009
159	0x3d9ea53b	0.07746359
160	0x3b8964ab	0.0041929088
161	0x3e044af0	0.12919211
162	0xbd4a7363	-0.049426448
163	0x3e0fccc2	0.14042953
164	0x3b7ee0b4	0.0038891258
165	0x3d2bab37	0.04191133
166	0xbd10ed82	-0.035382755
167	0x3c4de076	0.012565723
168	0x3d9daaf6	0.07698624
169	0x3cba6ac9	0.022755997
170	0x37ee4ace	2.8406645e-05
171	0x3abf3408	0.001458765
172	0xbe002a33	-0.12516098
173	0x3c7f3ca6	0.015578425
174	0x3e094f1a	0.13409081
175	0xbe1df90e	-0.15427038
176	0xbc816d0f	-0.015799074
177	0x3d8b0ce7	0.0678957
178	0x3c80a23a	0.015702356
179	0x3dcb1657	0.0991637
180	0xbdd5abe3	-0.104331754
181	0x3e4740e8	0.19458354
182	0xbdbbefbb	-0.09176584
183	0xbc524b0c	-0.012835275
184	0x3d8acdd3	0.06777539
185	0xbe0c66fa	-0.13711157
186	0x3d8c3562	0.068461195
187	0x3b5bd5e7	0.0033544244
188	0x3d88b875	0.066758074
189	0xbe41f828	-0.1894232
190	0x3d806e9d	0.06271098
191	0x3d2beec1	0.04197574
192	0x3db1491d	0.086565234
193	0x3d195603	0.037435543
194	0xbd8f3f9d	-0.06994555
195	0x3ddb4923	0.10707309
196	0x3dcc6df1	0.09981907
197	0xbd91fba5	-0.071280755
198	0x3b27159a	0.0025495053
199	0xbd8b9e54	-0.06817308
200	0xbd1c7be6	-0.038204096
201	0xbd1edaf1	-0.038783018
202	0x3d8cd206	0.06875996
203	0x3cd4e6e3	0.025989002
204	0xbc41dcb2	-0.011832403
205	0x3d7ae290	0.061251223
206	0x3e0e4195	0.13892205
207	0x3d54c2ea	0.051943697
208	0x3d84fd0d	0.06493578
209	0x3d46de10	0.04855162
210	0x3e46c1cb	0.19409864
211	0x3e510b26	0.20414409
212	0x3dd7f129	0.105440445
213	0xbd33441c	-0.043766126
214	0x3da4e046	0.08050589
215	0xbd9d6687	-0.07685571
216	0x3e15356b	0.14571159
217	0xbdabfce8	-0.083978474
218	0x3d4805ef	0.048833784
219	0x3d32564a	0.043539323
220	0x3da32b1c	0.07967207
221	0xbd006e00	-0.031354904
222	0x3ca1dec0	0.019759536
223	0x3e1233f1	0.14277627
224	0xbce3b597	-0.02779655
225	0x3d874fc3	0.0660701
226	0x3d3514e6	0.044209383
227	0xbd1c0947	-0.038094785
228	0xbd1d3b27	-0.03838649
229	0x3a754df0	0.0009357622
230	0x3dc2e9b6	0.09517233
231	0x3d8ef0bd	0.06979511
232	0x3ce3d338	0.027810678
233	0xbe13dec7	-0.14440452
234	0xbc9cfacd	-0.01916256
235	0xbd37afc0	-0.044845343
236	0x3ced1f82	0.028945688
237	0x3dde757e	0.108622536
238	0x3b404537	0.002933813
239	0x3de0be69	0.10973818
240	0xbd8b3be4	-0.067985326
241	0x3d03daf3	0.032191228
242	0xbd22aeae	-0.03971737
243	0x3bd33f6b	0.006446769
244	0x3c53b7d2	0.012922244
245	0x3de9dd9a	0.1141922
246	0xbdd1e023	-0.10247829
247	0x3d3e602b	0.04647843
248	0x3d054dbb	0.032544833
249	0xbe475e90	-0.19469666
250	0xbe166eeb	-0.1469075
251	0xbbc17c21	-0.00590469
252	0x3e03757f	0.1283779
253	0xbdf5c39e	-0.12000202
254	0xbdb31bfe	-0.087455735
255	0xbe0a37cf	-0.13497852

weight f4 [16, 64]
0	0xbd5cd6f0	-0.053915918
1	0x3de30fcd	0.11086998
2	0x3e1436f9	0.14474095
3	0xbc4cd9ce	-0.012503101
4	0xbe070456	-0.13185248
5	0xbd2182da	-0.03943143
6	0xbd2103f4	-0.03931041
7	0x3c40dc5b	0.011771287
8	0x3e0db9b5	0.13840373
9	0x3e151fdc	0.14562935
10	0xbe10796d	-0.1410882
11	0x3d560fe5	0.052261252
12	0xbd8d92fa	-0.06912799
13	0xbdf5e0de	-0.12005781
14	0x3d1b9efb	0.037993412
15	0x3d91e90d	0.07124529
16	0x3d47e04a	0.048797883
17	0xbc26d3d7	-0.0101823425
18	0xbc748367	-0.014923907
19	0xbd294697	-0.041327085
20	0xbd8e3c22	-0.06945063
21	0xbd4fe7cb	-0.050758164
22	0xbdb9d311	-0.09073461
23	0x3e22addc	0.15886635
24	0x3d01e1e9	0.031709585
25	0xbd7652a8	-0.06013742
26	0xbd62e7ff	-0.05539703
27	0xbcb33b40	-0.021878839
28	0xbdee4666	-0.11634521
29	0x3b3fac79	0.0029247089
30	0xbd1f0083	-0.038818847
31	0x3d65b375	0.056079347
32	0xbd6f5856	-0.058433853
33	0x3d28bb89	0.041194472
34	0xbcfcecfc	-0.030874722
35	0xbdcde80e	-0.100540265
36	0xbcb49bcd	-0.022046948
37	0xbe3ea66f	-0.18618177
38	0xbe233a4f	-0.15940212
39	0xbc1a8925	-0.009432112
40	0xbd0134ef	-0.031544622
41	0x3d795dcc	0.060880467
42	0x3e809cb1	0.25119546
43	0xbd38fce2	-0.045163043
44	0x3ccc26b5	0.0249208
45	0xbda830b2	-0.08212413
46	0xbd870335	-0.065924086
47	0x3e33b130	0.1754806
48	0xbe0fa81a	-0.1402897
49	0x3d8ff3ee	0.07028948
50	0x3d951118	0.07278651
51	0x3d43078d	0.047614623
52	0xbc9f3b78	-0.019437537
53	0xbc021b99	-0.00794115
54	0x3d351ad3	0.044215035
55	0xbd084169	-0.033265505
56	0xbc4a7393	-0.012356657
57	0x3c917b89	0.017759101
58	0x3d435a5c	0.047693595
59	0x3da14fb2	0.07876529
60	0x3c866216	0.016404193
61	0xbe04cb0d	-0.12968083
62	0xbdee324b	-0.11630686
63	0xbc45348d	-0.012036455
64	0x3ccfd3ce	0.025369551
65	0xbe2ee5d0	-0.17079854
66	0xbdd60d71	-0.104517825
67	0x3e0a3426	0.13496456
68	0x3e1126a4	0.14174896
69	0xbdd8b7dd	-0.10581944
70	0xbbfe9174	-0.007768804
71	0xbe070ec5	-0.13189228
72	0xbbf8d313	-0.0075935214
73	0xbc28292a	-0.0102637205
74	0x3dc7e5c0	0.09760618
75	0x3be95fc1	0.0071220105
76	0xbd846501	-0.064645775
77	0xbc8e8da9	-0.017401533
78	0x3d838226	0.06421308
79	0x3e14b32e	0.14521477
80	0xbdd5b9c0	-0.104358196
81	0x3d38e7d2	0.045142956
82	0xbd9a1400	-0.07523346
83	0xbe00b27b	-0.12568085
84	0xbd8af4de	-0.06784986
85	0xbd661d07	-0.056180026
86	0x3c1141bb	0.008865769
87	0x3c1d0977	0.009584776
88	0x3d7e0086	0.062012218
89	0xbe0d3ec8	-0.1379348
90	0x3d4dd780	0.050254345
91	0xbdbab740	-0.091169834
92	0xbd1fba04	-0.038995758
93	0x3e931d5e	0.28733343
94	0x3db1c4ef	0.0868014
95	0xbb93f081	-0.0045147543
96	0x3b113e4a	0.0022162371
97	0xbd90150d	-0.07035265
98	0xbdac2b4c	-0.08406696
99	0x3dd2e016	0.10296647
100	0xbd18bf31	-0.03729171
101	0xbc7cdfc9	-0.015434214
102	0xbc013b71	-0.007887707
103	0x3def0604	0.11671069
104	0xbe513d20	-0.20433474
105	0xbd3c250f	-0.04593378
106	0x3cb4eaea	0.022084672
107	0x3df41184	0.11917403
108	0x3e22b71c	0.15890163
109	0xbde47d7a	-0.11156745
110	0x3d165e4e	0.03671103
111	0x3dc617ae	0.09672485
112	0x3e3a40c8	0.18188775
113	0x3d851a63	0.064991735
114	0x3c6075e8	0.013699986
115	0x3dd18460	0.10230327
116	0x3d119e6d	0.035551477
117	0xbd916225	-0.07098798
118	0xbde7aeb3	-0.11312618
119	0xbc6eabb8	-0.014567308
120	0x3c9d450c	0.019197963
121	0xbd76eabb	-0.06028245
122	0xbcac0b81	-0.02100158
123	0xba6ec8b1	-0.0009108885
124	0x3e0083a2	0.12550214
125	0xbd1295b3	-0.035787296
126	0x3dd80daa	0.10549481
127	0x3b9c94e4	0.0047784913
128	0xbc3ac04d	-0.011398387
129	0x3d05ae05	0.03263666
130	0x3d923cee	0.07140528
131	0xbde8a337	-0.11359256
132	0x3e04705f	0.12933491
133	0xbc5838f5	-0.013197173
134	0x3c370b75	0.011172165
135	0x3dbafb03	0.09129908
136	0x3d617152	0.05503971
137	0x3cf79521	0.030222477
138	0x3d7e2dc8	0.06205538
139	0xbd0c6a55	-0.034281094
140	0x3d55ab23	0.05216516
141	0xbd15823c	-0.036501154
142	0x3c1f2464	0.009713266
143	0x3d1f24b0	0.038853347
144	0x3d7ed4f3	0.062214803
145	0xbd35dbfe	-0.044399254
146	0xbd8a97f9	-0.06767268
147	0x3c5042c3	0.01271123
148	0x3cacd277	0.021096451
149	0xbd9d2583	-0.076731704
150	0xbba6ae38	-0.0050866865
151	0x3d50341e	0.050830953
152	0xbc785669	-0.015157321
153	0xbd322566	-0.043492697
154	0x3d7823c8	0.060581
155	0xbdcce0b3	-0.100037955
156	0x3d60d86f	0.054893907
157	0xbddbd61d	-0.10734198
158	0xbdfff4d2	-0.12497868
159	0xbdab0926	-0.08351354
160	0xbe10cede	-0.14141414
161	0x3dc8078c	0.097670645
162	0x3df11ecd	0.11773453
163	0xbcf8b2f0	-0.030358762
164	0xbda8caf8	-0.08241838
165	0xbd1d9e39	-0.03848097
166	0x3d6152f1	0.05501074
167	0x3cfdb0b5	0.03096805
168	0xbdc833a2	-0.09775473
169	0xbdde8545	-0.10865263
170	0x3e031f6f	0.1280496
171	0xbc03d172	-0.008045541
172	0x3df2b3bd	0.118506886
173	0xbdf389fe	-0.11891554
174	0x3dec6fa1	0.11544729
175	0xbbff8f10	-0.007799037
176	0x3d83b681	0.06431294
177	0xbd7418a7	-0.059593823
178	0x3d42c512	0.047551222
179	0x3dac9ea8	0.08428699
180	0x3d783e70	0.06060642
181	0x3c9a5699	0.018840121
182	0x3d055c11	0.032558504
183	0x3e1b714f	0.15179943
184	0xbe810721	-0.2520075
185	0x3e054607	0.13014995
186	0x3d9d08da	0.07667704
187	0x3d1869cf	0.037210282
188	0xbd76fcf1	-0.060299817
189	0x3e0d2ece	0.13787386
190	0xbcbb8bad	-0.022893751
191	0xbd8ce98b	-0.06880482
192	0xbc92eaa2	-0.017934147
193	0xbdb5bf90	-0.08874428
194	0xbda88c09	-0.082298346
195	0x3e12713f	0.14301012
196	0xbe07e95b	-0.13272612
197	0x3d5264c8	0.051365644
198	0xbd186798	-0.03720817
199	0xbd359fe7	-0.044341948
200	0x3e09d37d	0.13459583
201	0x3cc83459	0.024439024
202	0xbe0617d8	-0.13095033
203	0xbd5103b1	-0.05102891
204	0xba4a46d3	-0.0007716242
205	0x3d8ac248	0.067753375
206	0x3dce2f0f	0.100675695
207	0x3c23d5aa	0.009999672
208	0xbe4de0a2	-0.20105222
209	0x3e1c370b	0.15255372
210	0xbd1c46aa	-0.038153328
211	0x3e075556	0.13216147
212	0xbbed4a34	-0.0072415117
213	0xbd6b65b3	-0.057470035
214	0x3dfdc8bc	0.12391803
215	0xbce472b5	-0.027886728
216	0xbc7fa657	-0.015603623
217	0xbde136fa	-0.10996814
218	0x3d80ba69	0.06285555
219	0xbe12d986	-0.14340791
220	0xbcb7b4b2	-0.02242503
221	0xbdebe0b6	-0.115174696
222	0x39685ae8	0.0002215911
223	0xbd9df4a8	-0.0771268
224	0x3e1b7591	0.15181567
225	0x3d3774d5	0.044789154
226	0x3e3a6cf2	0.18205622
227	0x3df14cd4	0.11782232
228	0xbd863ae1	-0.06554199
229	0x3d91df8d	0.07122717
230	0xbc9f84de	-0.019472536
231	0x3d6ab3d9	0.057300422
232	0xbb89ddbf	-0.0042073424
233	0xbd41e63f	-0.04733872
234	0xbd638fda	-0.05555711
235	0xbe2e2a30	-0.17008281
236	0xbe3c75f2	-0.18404368
237	0x3e137aee	0.14402363
238	0xbd411896	-0.047142588
239	0x3da433a9	0.08017666
240	0x3df50e94	0.11965671
241	0x3e7d433d	0.2473268
242	0x3d157558	0.03648886
243	0xbb92d62b	-0.004481097
244	0xbde9a6e9	-0.11408789
245	0xbcff7103	-0.031181818
246	0xbde5d9d5	-0.11223189
247	0x3d42c975	0.047555406
248	0xbdc98aac	-0.09840903
249	0xbdf58c3c	-0.11989638
250	0x3d0392c9	0.032122407
251	0x39f1e493	0.00046137403
252	0xbd47dc87	-0.048794296
253	0x3b59f2a1	0.003325619
254	0x3d87b2b4	0.06625882
255	0xbe1b51e3	-0.15167956

tril f4 [32, 32]
0	0x3f800000	1.0
1	0x00000000	0.0
2	0x00000000	0.0
3	0x00000000	0.0
4	0x00000000	0.0
5	0x00000000	0.0
6	0x00000000	0.0
7	0x00000000	0.0
8	0x00000000	0.0
9	0x00000000	0.0
10	0x00000000	0.0
11	0x00000000	0.0
12	0x00000000	0.0
13	0x00000000	0.0
14	0x00000000	0.0
15	0x00000000	0.0
16	0x00000000	0.0
17	0x00000000	0.0
18	0x00000000	0.0
19	0x00000000	0.0
20	0x00000000	0.0
21	0x00000000	0.0
22	0x00000000	0.0
23	0x00000000	0.0
24	0x00000000	0.0
25	0x00000000	0.0
26	0x00000000	0.0
27	0x00000000	0.0
28	0x00000000	0.0
29	0x00000000	0.0
30	0x00000000	0.0
31	0x00000000	0.0
32	0x3f800000	1.0
33	0x3f800000	1.0
34	0x00000000	0.0
35	0x00000000	0.0
36	0x00000000	0.0
37	0x00000000	0.0
38	0x00000000	0.0
39	0x00000000	0.0
40	0x00000000	0.0
41	0x00000000	0.0
42	0x00000000	0.0
43	0x00000000	0.0
44	0x00000000	0.0
45	0x00000000	0.0
46	0x00000000	0.0
47	0x00000000	0.0
48	0x00000000	0.0
49	0x00000000	0.0
50	0x00000000	0.0
51	0x00000000	0.0
52	0x00000000	0.0
53	0x00000000	0.0
54	0x00000000	0.0
55	0x00000000	0.0
56	0x00000000	0.0
57	0x00000000	0.0
58	0x00000000	0.0
59	0x00000000	0.0
60	0x00000000	0.0
61	0x00000000	0.0
62	0x00000000	0.0
63	0x00000000	0.0
64	0x3f800000	1.0
65	0x3f800000	1.0
66	0x3f800000	1.0
67	0x00000000	0.0
68	0x00000000	0.0
69	0x00000000	0.0
70	0x00000000	0.0
71	0x00000000	0.0
72	0x00000000	0.0
73	0x00000000	0.0
74	0x00000000	0.0
75	0x00000000	0.0
76	0x00000000	0.0
77	0x00000000	0.0
78	0x00000000	0.0
79	0x00000000	0.0
80	0x00000000	0.0
81	0x00000000	0.0
82	0x00000000	0.0
83	0x00000000	0.0
84	0x00000000	0.0
85	0x00000000	0.0
86	0x00000000	0.0
87	0x00000000	0.0
88	0x00000000	0.0
89	0x00000000	0.0
90	0x00000000	0.0
91	0x00000000	0.0
92	0x00000000	0.0
93	0x00000000	0.0
94	0x00000000	0.0
95	0x00000000	0.0
96	0x3f800000	1.0
97	0x3f800000	1.0
98	0x3f800000	1.0
99	0x3f800000	1.0
100	0x00000000	0.0
101	0x00000000	0.0
102	0x00000000	0.0
103	0x00000000	0.0
104	0x00000000	0.0
105	0x00000000	0.0
106	0x00000000	0.0
107	0x00000000	0.0
108	0x00000000	0.0
109	0x00000000	0.0
110	0x00000000	0.0
111	0x00000000	0.0
112	0x00000000	0.0
113	0x00000000	0.0
114	0x00000000	0.0
115	0x00000000	0.0
116	0x00000000	0.0
117	0x00000000	0.0
118	0x00000000	0.0
119	0x00000000	0.0
120	0x00000000	0.0
121	0x00000000	0.0
122	0x00000000	0.0
123	0x00000000	0.0
124	0x00000000	0.0
125	0x00000000	0.0
126	0x00000000	0.0
127	0x00000000	0.0
128	0x3f800000	1.0
129	0x3f800000	1.0
130	0x3f800000	1.0
131	0x3f800000	1.0
132	0x3f800000	1.0
133	0x00000000	0.0
134	0x00000000	0.0
135	0x00000000	0.0
136	0x00000000	0.0
137	0x00000000	0.0
138	0x00000000	0.0
139	0x00000000	0.0
140	0x00000000	0.0
141	0x00000000	0.0
142	0x00000000	0.0
143	0x00000000	0.0
144	0x00000000	0.0
145	0x00000000	0.0
146	0x00000000	0.0
147	0x00000000	0.0
148	0x00000000	0.0
149	0x00000000	0.0
150	0x00000000	0.0
151	0x00000000	0.0
152	0x00000000	0.0
153	0x00000000	0.0
154	0x00000000	0.0
155	0x00000000	0.0
156	0x00000000	0.0
157	0x00000000	0.0
158	0x00000000	0.0
159	0x00000000	0.0
160	0x3f800000	1.0
161	0x3f800000	1.0
162	0x3f800000	1.0
163	0x3f800000	1.0
164	0x3f800000	1.0
165	0x3f800000	1.0
166	0x00000000	0.0
167	0x00000000	0.0
168	0x00000000	0.0
169	0x00000000	0.0
170	0x00000000	0.0
171	0x00000000	0.0
172	0x00000000	0.0
173	0x00000000	0.0
174	0x00000000	0.0
175	0x00000000	0.0
176	0x00000000	0.0
177	0x00000000	0.0
178	0x00000000	0.0
179	0x00000000	0.0
180	0x00000000	0.0
181	0x00000000	0.0
182	0x00000000	0.0
183	0x00000000	0.0
184	0x00000000	0.0
185	0x00000000	0.0
186	0x00000000	0.0
187	0x00000000	0.0
188	0x00000000	0.0
189	0x00000000	0.0
190	0x00000000	0.0
191	0x00000000	0.0
192	0x3f800000	1.0
193	0x3f800000	1.0
194	0x3f800000	1.0
195	0x3f800000	1.0
196	0x3f800000	1.0
197	0x3f800000	1.0
198	0x3f800000	1.0
199	0x00000000	0.0
200	0x00000000	0.0
201	0x00000000	0.0
202	0x00000000	0.0
203	0x00000000	0.0
204	0x00000000	0.0
205	0x00000000	0.0
206	0x00000000	0.0
207	0x00000000	0.0
208	0x00000000	0.0
209	0x00000000	0.0
210	0x00000000	0.0
211	0x00000000	0.0
212	0x00000000	0.0
213	0x00000000	0.0
214	0x00000000	0.0
215	0x00000000	0.0
216	0x00000000	0.0
217	0x00000000	0.0
218	0x00000000	0.0
219	0x00000000	0.0
220	0x00000000	0.0
221	0x00000000	0.0
222	0x00000000	0.0
223	0x00000000	0.0
224	0x3f800000	1.0
225	0x3f800000	1.0
226	0x3f800000	1.0
227	0x3f800000	1.0
228	0x3f800000	1.0
229	0x3f800000	1.0
230	0x3f800000	1.0
231	0x3f800000	1.0
232	0x00000000	0.0
233	0x00000000	0.0
234	0x00000000	0.0
235	0x00000000	0.0
236	0x00000000	0.0
237	0x00000000	0.0
238	0x00000000	0.0
239	0x00000000	0.0
240	0x00000000	0.0
241	0x00000000	0.0
242	0x00000000	0.0
243	0x00000000	0.0
244	0x00000000	0.0
245	0x00000000	0.0
246	0x00000000	0.0
247	0x00000000	0.0
248	0x00000000	0.0
249	0x00000000	0.0
250	0x00000000	0.0
251	0x00000000	0.0
252	0x00000000	0.0
253	0x00000000	0.0
254	0x00000000	0.0
255	0x00000000	0.0

weight f4 [16, 64]
0	0xbdde4fb6	-0.108550474
1	0x3caa831f	0.020814477
2	0xbdc8fc7b	-0.09813782
3	0xbe0603eb	-0.13087432
4	0x3ccfa03a	0.025344957
5	0x3c28b3c7	0.0102967685
6	0xbd2ffa61	-0.04296339
7	0xbdd3a35d	-0.103338934
8	0xbccad5ef	-0.024760215
9	0xbe52ff9e	-0.20605323
10	0x3ca5f3e7	0.020257903
11	0x3d8ccda2	0.06875159
12	0x3cab690c	0.020924114
13	0x3c777f14	0.015105981
14	0xbe10a0fe	-0.14123914
15	0x3d34c114	0.044129446
16	0xbd9b131b	-0.075720035
17	0xbdd76bc4	-0.105186015
18	0xbde8dd86	-0.11370377
19	0x3e0b6f37	0.13616644
20	0x3d777283	0.06041194
21	0x3e00604b	0.12536733
22	0x3d8fdab7	0.070241384
23	0x3e1e00d0	0.15429997
24	0xbe44d0b6	-0.19220242
25	0x3e18c36c	0.14918298
26	0x3e9a00de	0.30078787
27	0x3d61db4c	0.05514078
28	0x3c934788	0.017978445
29	0x3de1843b	0.11011549
30	0xbcc0a17c	-0.023514502
31	0xbe763488	-0.24043477
32	0xbd743c4e	-0.059627824
33	0xbd6db8a4	-0.058037415
34	0x3e210b65	0.15727003
35	0x3d68c39c	0.056827173
36	0x3d45bbc0	0.048274755
37	0xbc04fb03	-0.0081164865
38	0x3ca1e576	0.019762736
39	0x3dc91d41	0.09820033
40	0x3e147aee	0.14500019
41	0xbd5ba0f0	-0.05362028
42	0xbc7ae4f5	-0.015313377
43	0x3dd6b785	0.10484222
44	0x3d355dcf	0.044278916
45	0xbd494244	-0.04913546
46	0xbd9a2077	-0.075257234
47	0xbb92b194	-0.0044767354
48	0xbd881344	-0.066442996
49	0xbc90f707	-0.017695917
50	0xbe27206b	-0.1632096
51	0x3d1b598e	0.037927203
52	0x3dab7a7b	0.08372971
53	0x3da0ccd8	0.07851571
54	0xbc4b5966	-0.012411451
55	0x3d9de061	0.077088125
56	0xbdb3c7a7	-0.08778315
57	0xbc941e46	-0.018080842
58	0x3d44e5ee	0.04807084
59	0x3b09742a	0.002097378
60	0x3c38a7f1	0.011270509
61	0x3d781b24	0.06057276
62	0x3e20496f	0.15653013
63	0x3cf42a09	0.0298052
64	0xbcd9655a	-0.026537586
65	0xbc160a62	-0.009157749
66	0xbd8afde3	-0.06786706
67	0x3d517d82	0.051145084
68	0x3c96f8ff	0.018429277
69	0x3d197c77	0.037472215
70	0x3d4b9dd6	0.04971107
71	0x3cee8164	0.029114433
72	0x3e37be7c	0.17943758
73	0xbdb51bdf	-0.088432066
74	0x3d54d27e	0.051958553
75	0x3e38396a	0.17990652
76	0xbda2937b	-0.07938286
77	0xbce6f572	-0.02819321
78	0xbe49a1f7	-0.19690691
79	0x3cda1e59	0.026625799
80	0xbe0cf804	-0.13766485
81	0xbdd99ec3	-0.106259845
82	0xbe191d07	-0.1495248
83	0xbd76faaf	-0.060297664
84	0xbd366ef2	-0.0445394
85	0xbc9f60b2	-0.019455288
86	0xbda36653	-0.07978501
87	0x3e1af571	0.15132691
88	0x3d7fa17f	0.062409874
89	0x3c009032	0.007846879
90	0x3d33c015	0.043884356
91	0xbe6debb1	-0.2323444
92	0xbe070982	-0.1318722
93	0x3e2d7608	0.16939557
94	0xbe1da4bd	-0.15394874
95	0xbdbba114	-0.091615826
96	0x3cce1063	0.025154298
97	0x3e591715	0.21200211
98	0xbe23cb9f	-0.15995644
99	0x3d651837	0.055931296
100	0xbde562a3	-0.11200454
101	0xbbda3d91	-0.0066601713
102	0x3dda39e0	0.1065557
103	0xbe0fb468	-0.14033663
104	0x3e46011b	0.19336359
105	0x3e2605a7	0.16213094
106	0xbd875bb8	-0.06609291
107	0x3d6019a4	0.054711953
108	0x3c948d9b	0.018133929
109	0x3d95693c	0.072954625
110	0x3d246873	0.040138673
111	0x3dbe4266	0.09290008
112	0x3d6515db	0.055929046
113	0xbcf03877	-0.0293238
114	0xbd477e45	-0.048704404
115	0x3e50f585	0.20406158
116	0xbc4f478c	-0.012651335
117	0xbe0de4b5	-0.13856776
118	0xbdda0a4e	-0.10646497
119	0x3df5faa1	0.12010694
120	0x3d2317b5	0.03981753
121	0x3cf76a42	0.030202035
122	0x3d089016	0.033340536
123	0xbdcc66ac	-0.099805206
124	0x3e24cbef	0.1609342
125	0x3d78dc4a	0.06075696
126	0xbdc825fc	-0.0977287
127	0x3bcacace	0.006188727
128	0x3e18a98b	0.14908426
129	0x3da580ba	0.08081193
130	0xbcbff972	-0.023434374
131	0xbd82c8f1	-0.06385983
132	0xbd91cb74	-0.07118884
133	0xbd2bcf8e	-0.041945986
134	0xbcce9b6f	-0.0252206
135	0x3da72ceb	0.08162864
136	0xbdf7ee35	-0.12105981
137	0x3c769a7a	0.0150514785
138	0xbe2379fa	-0.15964499
139	0xbd7ca266	-0.061678313
140	0xbd964ccc	-0.073388666
141	0x3e3ee696	0.18642649
142	0xbd2a8760	-0.04163301
143	0x3d1a95ab	0.03774039
144	0xbc36d6c1	-0.0111596
145	0xbd1c2d22	-0.03812898
146	0xbd6b9666	-0.057516478
147	0xbb4d4767	-0.0031323077
148	0xbdfdd394	-0.12393871
149	0x3e3ef2b0	0.18647265
150	0xbda28972	-0.07936372
151	0x3dbf4882	0.09340002
152	0xbdf55ada	-0.11980219
153	0x3dc36c9e	0.095422015
154	0x3c0884c2	0.008332433
155	0x3e97b084	0.29626858
156	0x3ddde120	0.10833955
157	0x3bf21f87	0.0073890123
158	0xbd84076c	-0.06446728
159	0xbd775118	-0.06038007
160	0xbe01177e	-0.12606618
161	0x3da6249b	0.08112451
162	0xbc34d77f	-0.011037706
163	0xbdb4919d	-0.08816836
164	0x3df04fbb	0.117339574
165	0x3cfb4e5e	0.030677017
166	0xbd4f50ed	-0.050614286
167	0xbcb9004d	-0.022583151
168	0x3e37a7e8	0.17935145
169	0x3da675bf	0.08127927
170	0xbc709dad	-0.01468603
171	0x3e1478d8	0.14499223
172	0xbe116c07	-0.14201365
173	0x3d974374	0.073859125
174	0xbc589eff	-0.013221501
175	0xbda13baf	-0.07872712
176	0xbd05e01e	-0.032684438
177	0x3d3a87a2	0.045539506
178	0xbe8add98	-0.27122188
179	0xbcebf2bb	-0.028802266
180	0x3d32f813	0.043693613
181	0xbdb042bf	-0.08606481
182	0xbd70f699	-0.058828924
183	0xbbc010de	-0.0058613857
184	0x3da178f3	0.07884397
185	0xbd9db9d6	-0.07701461
186	0xbd004e19	-0.03132448
187	0xbe3d1ea9	-0.18468727
188	0xbd665f95	-0.056243498
189	0x3d8a7cc7	0.06762081
190	0xbe08f3ac	-0.13374203
191	0xbd63904d	-0.055557538
192	0xbd99bede	-0.07507108
193	0x3d66dda4	0.056363717
194	0x3c3fe538	0.011712365
195	0xbe42ede1	-0.19036056
196	0x3d552ed6	0.05204662
197	0xbe32ce67	-0.17461549
198	0xbe0b1aff	-0.13584517
199	0xbe8ab27d	-0.270893
200	0x3db3287e	0.08747958
201	0xbc1ce8e3	-0.009577009
202	0x3d86e5eb	0.06586822
203	0x3dfcc55a	0.12342329
204	0x3d9ca59c	0.07648775
205	0xbe492f37	-0.19646917
206	0x3b1b43b2	0.0023691473
207	0xbde628f6	-0.112382814
208	0x3d91d61a	0.07120915
209	0x3d54dcb9	0.05196831
210	0x3de35004	0.11099246
211	0x3cb508d6	0.02209894
212	0xbd92bc93	-0.07164874
213	0xbc74efc0	-0.014949739
214	0x3d61211d	0.05496322
215	0xbdaf163c	-0.08549163
216	0x3d3439ee	0.04400056
217	0x3c15ec1b	0.00915053
218	0xbccf03cc	-0.025270365
219	0x3e1fba9b	0.15598528
220	0x3e447854	0.19186527
221	0x3db2bbc1	0.087272175
222	0xbd214946	-0.03937652
223	0x3c95a24a	0.018265862
224	0xbd153bb6	-0.036433898
225	0xbd606d2f	-0.054791626
226	0x3da13d16	0.07872979
227	0x3d60312e	0.0547344
228	0xbd9f13c7	-0.07767444
229	0x3e196836	0.1498116
230	0xbdaeed23	-0.08541324
231	0x3da096ff	0.078413
232	0x3dad8836	0.08473246
233	0xbd12aea6	-0.03581109
234	0xbd9c709d	-0.07638667
235	0x3ddfe500	0.1093235
236	0x3e411084	0.18853956
237	0xbe17a88c	-0.1481039
238	0xbd20841a	-0.039188482
239	0xbdc3d622	-0.09562327
240	0xbd7a6cc7	-0.061138894
241	0xbe21ab9a	-0.15788117
242	0xbccb8506	-0.024843704
243	0x3dabaa77	0.08382123
244	0xbc56f9ef	-0.013121112
245	0xbcdeea9b	-0.027211478
246	0x3e45e52c	0.19325703
247	0x3e3dae3c	0.18523496
248	0xbdebcf16	-0.11514108
249	0x3e1a0467	0.15040742
250	0x3db49e38	0.0881924
251	0x3d63a270	0.055574834
252	0x3d1aa39e	0.037753694
253	0x3d0eca74	0.034861043
254	0xbcb99c05	-0.022657404
255	0xbd15277d	-0.036414612
